backend/data/binary_classifier.pt (torch, 480088 bytes, 10 tensors)

conv1.0.weight f4 [16, 1, 3, 3]
000000 1e d8 5a 3e ef 0f 02 3e c4 11 8b be 60 a1 a5 be
       0.21371505 0.1270139 -0.27161992 -0.32349682
000010 0b a1 3d 3e a1 c8 67 3d d4 1c 19 be e2 35 0c 3e
       0.18518464 0.05658782 -0.14952403 0.1369243
000020 92 4f 85 3e 36 33 a9 3e 11 1b 94 be e2 8b 0d be
       0.2603727 0.33046883 -0.289269 -0.13822892
000030 6c 0a a7 be 8f a4 8a be 23 c8 0f be 06 4d 5b 3e
       -0.3262514 -0.27078673 -0.1404119 0.21416101
000040 fd 81 17 be 66 7c a1 be bf 94 38 3e 6c a2 ff bd
       -0.1479568 -0.3154022 0.18025492 -0.124821514
000050 6f 2f cd bd b5 66 a8 3e 70 43 09 be 38 cc a3 be
       -0.10018813 0.3289086 -0.13404632 -0.31991744
000060 26 32 8d 3e 5b c3 bf 3c 5a 64 d3 bd e5 5f 9c bd
       0.27577323 0.023408582 -0.10321875 -0.07635478
000070 d2 ab 91 3e 70 aa 84 bd eb f0 84 be 19 cc 4e be
       0.284514 -0.06477821 -0.25965056 -0.20195045
000080 04 1e 18 3e 34 20 3f be 46 62 97 be 98 28 84 3e
       0.148552 -0.18664628 -0.29567164 0.2581222
000090 29 02 63 3e ab 7a e9 bb 15 b7 5f 3e 63 b9 d4 bd
       0.22168793 -0.007125219 0.21847184 -0.10386922
0000a0 b9 c0 01 be 58 15 63 be 87 1b 85 be 51 0a 92 be
       -0.12671174 -0.2217611 -0.25997564 -0.28523496
0000b0 60 5a 2f be 23 e0 a8 3e 3e 43 e0 3d 10 e8 4e be
       -0.17124319 0.32983503 0.109503254 -0.20205712
0000c0 eb af 1a be 8c 43 ad 3d 7e ed 2a 3d 6f b1 10 be
       -0.1510617 0.08460149 0.041730396 -0.14130186
0000d0 fa be 13 be 3c 71 bb 3d d1 7e 64 bd d9 f4 01 bc
       -0.1442832 0.09152457 -0.055785004 -0.007931911
0000e0 20 8d 12 3e 89 b0 67 be 54 a6 fb bd 88 32 3c be
       0.14311647 -0.22625937 -0.12287584 -0.18378651
0000f0 97 60 08 be e5 b7 90 be 5c 06 6a be 2f 4e 8d 3e
       -0.13318096 -0.282653 -0.22853988 0.27598712
000100 fd ed b9 bc 66 de cd 3d f1 29 16 bc 58 9c 89 3d
       -0.02269649 0.10052185 -0.009165273 0.06719273
000110 41 1b 35 3e de 78 52 3e 67 41 07 be 72 e2 ec bb
       0.17686178 0.2055392 -0.13208543 -0.007229143
000120 4c 30 bb bb 57 ec 50 bd 9f 4d 6c be f3 85 75 3e
       -0.0057125445 -0.05100664 -0.23076485 0.23976879
000130 1b 77 99 be b9 52 74 3e fc 7e 5c 3e 6a e6 9b 3d
       -0.29973683 0.23859681 0.21532816 0.07612307
000140 36 71 33 be 2e 21 d2 3d d3 38 87 3c b9 6e 31 bd
       -0.17523655 0.10260235 0.016506588 -0.043318484
000150 61 61 84 3d 04 ae 7d be da 67 a6 be eb a9 32 3e
       0.06463886 -0.24773413 -0.32501107 0.17447631
000160 86 5c 3d be ae d0 c2 3c 68 d4 f1 bd 00 bd 69 be
       -0.18492326 0.023781147 -0.118080914 -0.22826004
000170 9d 7f 18 bd 1a a2 3e 3e cb 96 2f be 91 83 1d be
       -0.037231077 0.18616524 -0.17147367 -0.1538222
000180 2e 2e eb 3d 06 fc 4c 3e d9 31 92 be 61 3e 39 be
       0.114834175 0.20018014 -0.28553656 -0.18090202
000190 87 3f 98 be 08 9a a5 be 60 33 a4 bd 97 e8 ab be
       -0.29735968 -0.3234408 -0.080176115 -0.3357589
0001a0 e6 2d 07 3d 9c de 7d be cb 8d 9c be 1c 22 5a be
       0.033002757 -0.2479195 -0.3057693 -0.21302074
0001b0 ae fd 67 3e 80 26 07 3e 56 fc 07 be 30 a8 54 3e
       0.22655365 0.1319828 -0.13279852 0.20767283
0001c0 03 88 d9 3d d7 d6 45 be ce 8f 4b 3e b7 fb 02 3e
       0.10621645 -0.19320236 0.19879076 0.12791334
0001d0 13 94 c9 3d 78 3a 5f be 6d bd 24 3e f4 66 a9 39
       0.09842696 -0.21799648 0.16087885 0.00032310898
0001e0 48 1f fc 3d 28 13 48 3e 79 e3 fd bd 90 b8 04 3e
       0.12310654 0.19538558 -0.123969026 0.1296103
0001f0 c4 8c f1 3c 66 be 91 be e7 d3 a1 be b2 47 38 3d
       0.029486068 -0.28465575 -0.3160698 0.04499025
000200 61 b5 e7 3d 02 20 18 bd c7 a7 81 be 0a a8 87 3d
       0.11313892 -0.0371399 -0.25323316 0.06623848
000210 8a 01 a6 3e 5c db f9 3d ce 9e 8d bd 32 21 89 be
       0.3242305 0.122000426 -0.06915055 -0.2678314
000220 34 9e 5f be 71 21 97 be 59 84 38 be 4c 7e 56 bc
       -0.21837693 -0.295177 -0.18019237 -0.013091635
000230 1b ce c2 bd bd 8e 95 3e 3a 90 03 be eb 2d 46 3e
       -0.09511968 0.29210463 -0.12847987 0.19353454

conv1.0.bias f4 [16]
000000 9c ae 47 bd 88 c4 1e be bc f8 29 be fb 42 5d be
       -0.048750505 -0.15504658 -0.16598791 -0.21607582
000010 c6 e5 0e 3d 82 d5 cf 3d 2a 78 81 bd ba c6 2b be
       0.034887098 0.10148145 -0.063217476 -0.16775027
000020 4f 71 91 3e 16 c6 9e 3e 25 aa 66 bd 29 f4 88 3e
       0.2840676 0.31010503 -0.056314606 0.2674878
000030 88 7e 8d be e9 8c 5b be 00 10 86 3e 75 39 7c be
       -0.27635598 -0.21440472 0.26184082 -0.24631293

conv2.0.weight f4 [32, 16, 3, 3]
000000 66 1d eb bc f8 4b 57 3c a1 d0 bd 3a 2f 98 af 3a
       -0.028700542 0.013140671 0.0014481732 0.0013396795
000010 dd e3 71 bd e2 75 09 bd b7 22 da 3d ce a5 0a 3d
       -0.059055198 -0.033559687 0.106511526 0.03384953
000020 41 be c3 3c 60 3a ab 3d 8b 16 93 bd b5 b6 89 3d
       0.023894431 0.083607435 -0.07182034 0.06724302
000030 34 95 a3 bd 6c 07 94 bd e4 8d 2d bd 7f b7 ba bc
       -0.079874426 -0.07227978 -0.042371646 -0.022792576
000040 ad 70 88 bd a9 6e ae bc d0 df 8a 3c 83 20 b1 bc
       -0.06662116 -0.021293001 0.016952425 -0.021621948
000050 b4 95 38 3d 43 52 a4 3d fd e5 32 3d ae 6d e5 3b
       0.045064643 0.08023503 0.043676365 0.0070016
000060 5c 41 4f 3d 50 9a 64 bd 34 2f 81 bd 5a d8 89 bd
       0.05059944 -0.055811226 -0.063078314 -0.06730719
000070 07 44 89 3d 9b 4e 59 3d 83 50 fa bc 5c 6c 96 3c
       0.06702428 0.05305348 -0.03055597 0.018362217
000080 62 6d 58 3d 99 86 c9 3c 5e a2 96 3d 01 89 23 bd
       0.05283869 0.024600314 0.07355188 -0.03992558
000090 8e 19 e6 3c 6c 8b 86 3b ba 1f 40 3d d9 13 0a bc
       0.028088357 0.004105976 0.046905257 -0.008427584
0000a0 cb 9f 21 3d d4 a4 da bc e6 f6 6a 3c 38 e6 f0 bb
       0.03945903 -0.026689924 0.014341092 -0.007351663
0000b0 80 4b 22 3c cd 72 27 3d e4 ae 3d bd 81 b3 22 bd
       0.009905696 0.040880967 -0.046309367 -0.03972197
0000c0 40 5c de 3a d2 21 c6 3d 26 cd 0a 3c 30 35 cc 3d
       0.0016964749 0.096744195 0.008471763 0.09971082
0000d0 8d 01 03 3e a8 f2 b5 3d 3e ef 1c 3c 0b 48 9e 3d
       0.1279356 0.08884174 0.009578524 0.07728585
0000e0 27 4f a0 3c 51 a9 ca bc 9e a1 2d 3c 7d c3 73 bd
       0.019568993 -0.02473894 0.010597615 -0.059512604
0000f0 c7 35 50 bd 98 aa 50 bc d4 62 c3 3c 5c dd 09 bd
       -0.050832536 -0.012735985 0.023850836 -0.03365837
000100 9a 51 dc 3c c0 18 9d 3d e6 f0 89 bd 93 44 25 bd
       0.02689438 0.07670736 -0.06735401 -0.0403486
000110 a3 25 ab bc fc 4c 5c bd 83 4d 5d bd 3c 9e 0d bd
       -0.02089197 -0.053784356 -0.054029 -0.034574732
000120 ee e4 18 bc 00 eb a3 bc 31 61 95 bc 3f 54 9d bc
       -0.009331925 -0.020009518 -0.018234821 -0.01920521
000130 28 f0 81 3d 1b 80 cc 3d c0 8b 4f bc 40 b5 a9 bd
       0.06344634 0.09985372 -0.012667596 -0.08286524
000140 eb 6b 41 bd dd bb 9e 3d 47 23 6f bd 3e 2b 37 bd
       -0.04722206 0.07750676 -0.058383252 -0.044718973
000150 14 17 b4 bd ee 52 8f 3d b4 53 06 bd 03 ba bb 3c
       -0.08793464 0.069982395 -0.03279467 0.022915846
000160 3d 78 af 3d d2 6a a2 3b ea 78 26 3c 4a 64 8a bd
       0.085678555 0.0049565816 0.010160664 -0.0675741
000170 0c 23 95 3d bd 9e 8b bc 60 fe 49 3d b3 67 2a 3d
       0.07282075 -0.017043466 0.049314857 0.0416028
000180 84 3d 97 bd 4a dd 0d bd 56 47 92 bd 45 8b f7 3c
       -0.0738478 -0.034634866 -0.071425125 0.030217776
000190 5b 5f c1 3c d0 51 8a bd 84 4f bc 3c 5d b5 6a bd
       0.02360504 -0.06753886 0.022987135 -0.057301868
0001a0 e9 79 43 3d f1 5f d3 3c f9 1a 39 bd c8 b5 2c 3d
       0.047723684 0.025802584 -0.04519174 0.042165548
0001b0 b8 a8 42 bd 89 aa 00 bc c2 9a 31 bd d3 86 7d 3d
       -0.047524184 -0.007853159 -0.04336048 0.061896157
0001c0 79 72 7a bd 37 34 b8 3c f1 ef 56 3c 40 c4 49 bc
       -0.061144326 0.022485835 0.01311873 -0.012314856
0001d0 d5 38 9f bd 6c b2 d2 3c 2b 34 a4 3d e6 4b 3a bd
       -0.07774512 0.025719844 0.08017763 -0.04548254
0001e0 6f b3 1e bd 76 e7 6c bd c3 7a dd 3b 27 a8 f5 3a
       -0.03874534 -0.057837926 0.006759019 0.001874213
0001f0 a7 34 48 3d f1 cb aa 3c 86 bd b1 3c e5 f3 ff 3d
       0.04887834 0.0208492 0.021696817 0.12497691
000200 63 03 b3 3d 39 0b 68 3d e0 40 8a 3c 0a 4a 97 3d
       0.0874088 0.056651328 0.016876638 0.07387169
000210 b8 46 12 bd 11 d7 55 bd 75 c8 17 3d 75 4b b2 3d
       -0.035711974 -0.052207056 0.037056405 0.087057985
000220 7a f1 48 bc 37 40 06 bd 72 cc 4e bd ce 69 55 3d
       -0.012264604 -0.032776084 -0.050487943 0.052102856
000230 89 05 18 bc 2f 1f cc bb c7 de 4b bd 88 1d 3c 3d
       -0.009278663 -0.0062293033 -0.049773004 0.0459266
000240 e5 cb 10 bd 33 11 28 bd fe 1b 2a bc b3 50 7d bd
       -0.0353507 -0.041032027 -0.01038265 -0.06184454
000250 c7 a1 92 bd a9 4a 0f 3d 5b 9f 20 3d f8 7a 8c 3d
       -0.07159763 0.03498331 0.039214473 0.06859392
000260 d2 5c 9c 3d 80 cc 3a 3d 7e 4e 09 bd 2d 3e f0 3c
       0.076348916 0.045605183 -0.03352212 0.029326523
000270 59 40 99 3d 43 2f bd 3c 48 52 33 3c 2e 4c a5 bd
       0.074829765 0.023093825 0.01094491 -0.08071171
000280 32 d3 aa bd fa 94 6f 3c 8b 9a a4 3d ea 62 01 bb
       -0.083410636 0.014622921 0.08037289 -0.0019742795
000290 d7 30 47 3c 53 10 dd bc a0 ef 00 3e 1e de 18 3c
       0.01215764 -0.026985323 0.1259141 0.009330301
0002a0 5f 2a ba 3d e1 1a ce 3d eb 76 dc 3d 36 18 8c bc
       0.09090113 0.100637205 0.10764869 -0.017101388
0002b0 01 14 6c bd 5a 05 21 3c 5f 14 5f 3d f3 25 a1 bd
       -0.057636265 0.009827936 0.054462787 -0.07868566
0002c0 66 37 80 3d a9 55 94 bc 12 d6 40 3c 4b 8b 38 3c
       0.062605664 -0.018107252 0.011769788 0.011263679
0002d0 56 51 5a bd bf bf 26 bd 92 d7 79 bd 80 c5 a7 bd
       -0.053300224 -0.040710207 -0.0609966 -0.08191967
0002e0 56 6e e3 3c 4f d2 a0 3d 37 7f 8f bd a4 db 86 3d
       0.027762573 0.07852613 -0.07006686 0.06584862
0002f0 3a a8 3b bd ce ea a7 bd af 93 85 bd 64 79 4f bd
       -0.04581473 -0.08199082 -0.06522309 -0.050652876
000300 57 ca 52 3d 5f 09 91 bc fa c7 6e 3d 0b d2 80 bb
       0.051462498 -0.017704664 0.05829618 -0.003931289
000310 ab e6 0f 3d c7 00 95 3d fa 27 59 3d a7 13 11 3d
       0.03513209 0.07275539 0.05301664 0.035419133
000320 d9 77 91 3d f9 b5 3a bd 0f ac 62 bd e6 99 ec bc
       0.07102937 -0.0455837 -0.05533987 -0.028881978
000330 dc 24 a0 3d 85 c3 a6 bd 7c 62 e5 3c 4f 89 11 bd
       0.0781953 -0.08142761 0.028001063 -0.03553134
000340 dc 29 55 bd c8 17 1b 3d e2 5a 47 3d 08 db 9e 3d
       -0.052041873 0.037864476 0.048670657 0.07756621
000350 f5 a0 2a 3d 99 96 20 bc 68 6f 11 bd 1d 92 a4 bc
       0.041657407 -0.00980153 -0.035506636 -0.020089203
000360 2a 9a 8e bd d5 ab 75 3d 7c 76 c1 3b 33 f6 08 bc
       -0.06962998 0.059978325 0.005904017 -0.00835948
000370 4d 66 ad 3d 04 a7 06 3d 86 54 09 bd b0 25 db 3d
       0.08466778 0.032874122 -0.033527873 0.10700548
000380 b7 9a 2e bd df 85 4e 3d 8e 81 43 bc 33 ac a9 bc
       -0.042628016 0.05042064 -0.011932744 -0.020711994
000390 3a b8 22 3c 10 5c 5e 3d 5d 04 77 3b d8 cd 49 bd
       0.009931618 0.054287016 0.003769181 -0.049268574
0003a0 18 29 79 3d 43 7c c3 3c fb 75 06 bc 7b 61 a4 bc
       0.060830206 0.023862964 -0.00820684 -0.020066014
0003b0 db 51 80 bd f1 c5 3c 3d ae 2d 25 3d 5f 2d 1c bd
       -0.06265613 0.04608721 0.040326767 -0.038129207
0003c0 aa 9b 9c 3d a1 fc 05 3d b2 30 06 3d 2d 6a 9a 3c
       0.07646878 0.03271163 0.032761283 0.018849457
0003d0 ff 58 0d 3d 69 c8 11 bd 62 19 41 bc 8a 72 4c 3d
       0.0345087 -0.035591517 -0.011785837 0.04991392
0003e0 1f 95 92 3d bc 75 4d 3c e5 92 83 3c 10 10 67 bd
       0.07157349 0.012540277 0.016061256 -0.056411803
0003f0 90 62 5b 3d b4 3c 3d bd 36 2a c7 bc 89 73 8a bd
       0.053560793 -0.04620047 -0.02431212 -0.06760318

conv2.0.bias f4 [32]
000000 eb 68 4b bc 53 08 91 bc f4 72 8f bc 4a b7 f1 bc
       -0.012415151 -0.017704165 -0.017510869 -0.029506344
000010 3c 3b 79 bb d3 dc 87 bd b5 76 bc b9 89 6f ae 3d
       -0.0038029691 -0.06633916 -0.00035946598 0.085173674
000020 f6 b5 3f 3d 40 80 de bd 25 53 cc bd 5e fd c1 3d
       0.04680439 -0.108643055 -0.09976796 0.09472154
000030 fa 53 ea 3c c1 d9 88 3d 4d 1a 19 bb fd 35 20 3d
       0.028604496 0.06682158 -0.0023361624 0.039113987
000040 58 e3 5b 3c 5b 3c 38 bd 00 c7 97 3b 37 c1 df 3b
       0.013420902 -0.044979434 0.004631877 0.006828453
000050 2d e3 2c 3c 9d 92 c8 3d 78 2f 9d bd 39 24 d7 bb
       0.01055221 0.09793589 -0.076750696 -0.0065655974
000060 e3 7f aa bd 3b c4 25 3c 9c c0 97 3d d5 73 27 3b
       -0.08325174 0.010117586 0.07409784 0.002555122
000070 b4 9e 25 bd 74 3b 3b bc de 75 2e 3d c1 2a c9 bd
       -0.040434554 -0.011427749 0.042592876 -0.09822608

conv3.0.weight f4 [64, 32, 3, 3]
000000 34 a5 81 3d b1 00 8f 3c 6e f0 8c 3d 1e a1 ae 3c
       0.06330338 0.017456384 0.06881796 0.021317061
000010 33 5a de 3b ad ae b0 3c 4d 18 03 bd ca 56 2f bd
       0.006785655 0.021567667 -0.032005597 -0.042807378
000020 d2 c9 83 3d f0 5c d5 bc 32 eb 3c 3d 6b 48 52 bd
       0.064349785 -0.026045293 0.046122737 -0.051338594
000030 c2 dd 43 bd 74 f7 46 3b 96 fd 87 bc 79 d6 18 bd
       -0.047818907 0.0030359896 -0.016600411 -0.037313912
000040 43 71 02 3b 70 78 d6 3c 3e 08 54 3d c1 c3 57 bd
       0.0019903935 0.026180476 0.051765673 -0.05267692
000050 7d 42 7a 3c 2f 4a 96 3c 45 61 43 bd 00 f2 6c bd
       0.015274641 0.01834592 -0.047700185 -0.057847977
000060 bc 90 f0 3c b2 6e 29 bc cb 32 b2 3b b0 1f 79 bc
       0.02936589 -0.010341333 0.005438184 -0.015205309
000070 9a 58 78 bd aa eb 1a bd ce 75 7b bd 10 62 20 3d
       -0.060631372 -0.037822403 -0.061391644 0.03915602
000080 73 6b af bb 9c 41 03 3d c7 23 20 3d a0 24 47 bb
       -0.005353385 0.03204499 0.03909662 -0.003038682
000090 15 4c 68 bb 03 5e 93 3b 8b 45 0f bc 83 a7 1d bb
       -0.003544574 0.004497291 -0.008744608 -0.0024056144
0000a0 c9 c7 32 3b e6 59 18 bc 5e d2 38 3d 40 71 48 bd
       0.0027279726 -0.009298777 0.045122497 -0.04893613
0000b0 29 d7 d3 ba 61 4a a2 bc a4 f6 6b bd c2 02 24 3d
       -0.0016162145 -0.019810857 -0.05760826 0.040041693
0000c0 86 d4 70 3c ab 75 01 bd e3 fa 1f 3d 5e ac e2 bc
       0.014699107 -0.031606358 0.039057624 -0.027670082
0000d0 9d d4 8a bc e8 89 cf bc 53 15 24 3d bb 7c 38 bd
       -0.016947085 -0.025334314 0.0400594 -0.045040827
0000e0 85 60 ad 3c 84 25 e9 3c ed ef 27 bd 7b bc 25 bd
       0.021164188 0.028460272 -0.041000295 -0.040462952
0000f0 b1 64 42 3d 94 b6 de bc 12 52 04 3d 3e f5 47 bd
       0.047459308 -0.02718667 0.03230483 -0.048817866
000100 37 d7 4f 3d f6 10 4e bd 26 19 a8 bc d2 93 0f bd
       0.050742354 -0.050309144 -0.020519804 -0.03505308
000110 e7 f5 ff 3a 4e 15 e9 3a 89 7f 80 bc 90 fd e5 3c
       0.0019528241 0.0017782839 -0.015685814 0.02807501
000120 e1 ad 21 bd 55 8e 8f 3c fa 47 a7 3c f1 fc 61 bd
       -0.039472464 0.017523924 0.020420063 -0.055172864
000130 c3 53 1d 3c 41 f7 6a 3d 71 46 54 bd 95 5d 67 3c
       0.00960249 0.057364706 -0.05182499 0.014121433
000140 0d d1 c5 bc 67 cd d1 bc 46 22 96 3c 88 1f 39 3d
       -0.024147535 -0.025610639 0.01832689 0.045196086
000150 8d d0 f3 3c d0 b3 6f bb 29 5e 75 3d d4 22 81 bd
       0.02976253 -0.0036575682 0.05990425 -0.06305471
000160 28 2f 51 3c c1 72 5f bc bb 22 21 bc 1f 50 ca 3c
       0.012767591 -0.013638199 -0.009834941 0.024696408
000170 6b c1 f8 bc e0 3c 51 3d 2c fa 86 bc d0 f5 20 3d
       -0.030365666 0.051083446 -0.016476713 0.039296925
000180 fe a7 0c 3d b0 88 8a 3b f4 65 4e bd 8a e7 c4 bc
       0.034339897 0.00422772 -0.0503902 -0.024036188
000190 26 ca 73 3d 60 dc e4 bc 7c 4c 4a 3d 8e 29 3b bc
       0.059518956 -0.027937114 0.049389347 -0.011423482
0001a0 29 1b a4 3c 44 06 3d bc cc d0 2c 3d 11 68 d0 bc
       0.020032482 -0.011537138 0.04219131 -0.025440248
0001b0 bd ad 85 bd 13 c2 04 3a b3 38 c0 3c 5e a3 e6 bc
       -0.065272786 0.00050643197 0.023464536 -0.028154071
0001c0 36 d0 e6 bb ab ba 9a 3c e8 34 6d bc 03 33 90 bc
       -0.0070438636 0.018887838 -0.014477946 -0.01760245
0001d0 00 42 f5 3b d4 a0 f6 bb 67 d3 20 3c cd a5 18 3d
       0.0074846745 -0.0075264964 0.009816027 0.037267495
0001e0 e3 03 a6 bc 66 e4 55 bd 44 d7 2c 3d f0 fb 09 bd
       -0.020265525 -0.05221977 0.04219748 -0.033687532
0001f0 dc e7 73 3a bd 14 51 3d 60 b3 57 3d 45 18 3a bd
       0.0009304264 0.05104517 0.0526613 -0.0454333
000200 25 c7 0a 3c 31 7a 54 3d e3 b0 8e 3d 4b f1 45 3d
       0.008470331 0.051874343 0.06967332 0.048325818
000210 44 68 06 3d ee 17 ea 3c 2a dd 23 3d 10 eb 02 bc
       0.03281428 0.028575864 0.04000584 -0.007990614
000220 8e 46 0e 3d b2 85 21 3d 3b ef 0b bd 3f 6a 3f bd
       0.034735255 0.039434142 -0.034163695 -0.046732184
000230 64 9d e1 3a 74 5c b4 bd bd 31 87 bc 19 e9 af bc
       0.0017213044 -0.088066965 -0.01650321 -0.021473454
000240 24 7c 3d bd f3 1d a1 bc ef 33 4c bd 1d 6f 7d bd
       -0.046260968 -0.019667601 -0.049854215 -0.061873544
000250 e1 89 61 bd b9 f2 f7 bc 3a af 8d bd 6b 7e 33 bc
       -0.055063132 -0.030267106 -0.069181874 -0.010955433
000260 6d 81 c2 39 8d 59 5f 3d 81 58 1b 3d 43 4e f3 3c
       0.00037098993 0.05452876 0.0379262 0.029700404
000270 59 58 73 ba 01 ea a2 3c 5f e1 05 3d eb 47 fc bc
       -0.0009282879 0.019886972 0.032685634 -0.030796012
000280 3c 9e 10 3c ab cd a8 3c 35 2f b7 bb 84 43 3f 3d
       0.0088267885 0.020605883 -0.0055903443 0.046695247
000290 f6 94 3d bd fb cc 78 bd 8f ed 10 bc cb 8e 30 bd
       -0.04628464 -0.06074236 -0.008845701 -0.043104928
0002a0 31 c7 bd bc d4 53 0e 3d 8a 3a 72 3d d0 e7 55 3d
       -0.02316627 0.034747913 0.05913786 0.052223027
0002b0 ac 07 1e 3b a4 32 3b bd 97 d2 c4 bb 1f 26 f9 3c
       0.002411346 -0.04570259 -0.0060065496 0.030413685
0002c0 63 2c f9 39 49 44 71 bd e9 37 5a 3d 52 1f 7c 3c
       0.00047526052 -0.058903012 0.053275976 0.015388327
0002d0 ed 39 65 3d d7 eb d8 3c fe f1 5c bc fe d3 63 bb
       0.055963445 0.026479645 -0.01348543 -0.0034763808
0002e0 6b a6 e0 bc 11 83 a7 bc 4e a8 98 3c 98 92 f8 bc
       -0.027423104 -0.02044824 0.018634941 -0.030343339
0002f0 cd cd f8 3c c1 d0 4e 3d 85 64 8f bc 53 5f dc 39
       0.030371571 0.050492052 -0.017503986 0.00042032692
000300 8d 5d 24 bd 6e 91 fa bc 20 79 b9 3c 1b 8a 18 3d
       -0.04012828 -0.030586924 0.022640765 0.037241083
000310 c6 df 4a 3b 3a 99 1e 3c cd 57 23 3d 73 2a 6c bd
       0.0030956133 0.009680087 0.039878655 -0.05765767
000320 cd 38 82 bd ef 5b 09 bd 3c 76 a6 bc 44 70 de bc
       -0.0635849 -0.03353494 -0.02032005 -0.027153142
000330 0d 48 fd 3b 80 25 e7 3c 31 40 1e bd 35 c1 b4 3c
       0.0077295364 0.028216124 -0.038635436 0.022064785
000340 8a bf 4d bd cb 80 c3 3c 75 38 2b bd 9b 4d 22 bd
       -0.050231494 0.023865124 -0.04180189 -0.03962479
000350 7d d2 ab bc 4d 89 02 bd 0f 0e ab 3c 93 a8 21 3d
       -0.020974392 -0.03186922 0.020880727 0.039467406
000360 20 b1 3a 3d c2 b5 ea 3c c5 ae aa bc 10 09 80 3c
       0.045579076 0.028651122 -0.02083529 0.015629321
000370 43 9f 29 3d 90 08 c5 3c 84 d7 6b 3b 02 3b eb bb
       0.04141165 0.024051934 0.0035986612 -0.007178665
000380 30 c8 d8 3c ea da 48 3d e8 cb 1d 3d 88 46 df bc
       0.026462644 0.049036898 0.03852454 -0.027255312
000390 81 82 0b 3d 04 45 32 bd 30 1e 2f bd f2 f8 8f 3d
       0.034060005 -0.04352285 -0.0427534 0.070299044
0003a0 46 6e 80 bc dd 82 47 bc 94 2f 6f 3d 45 94 31 bb
       -0.015677582 -0.012177196 0.058394983 -0.0027096432
0003b0 f9 e3 8e bc 65 12 62 bd c0 0d 42 3d 9e 26 86 3d
       -0.01744269 -0.055193324 0.047376394 0.065503344
0003c0 a5 ec ad bd d4 0f 9c bd 33 0d f2 bb 83 d0 4b 3d
       -0.08492402 -0.076202065 -0.0073868274 0.0497594
0003d0 28 58 02 bd 3a 74 fe 3b 3f 0d 80 bd 72 0a 25 bd
       -0.031822354 0.00776532 -0.062525265 -0.040293165
0003e0 f2 a9 df 3c 8b f5 0a 3d ee b3 b0 bb 64 aa 6a 3d
       0.027302716 0.033925574 -0.005392543 0.057291403
0003f0 a6 0b 04 bd 00 e7 ad 3c e8 d8 12 bd 01 3a fb 3a
       -0.03223767 0.021228313 -0.03585139 0.0019167067

conv3.0.bias f4 [64]
000000 97 6f 1f 3d ec 98 25 bd 1c e6 05 bc 0b 0b cb 3c
       0.03892478 -0.04042904 -0.008172538 0.02478554
000010 e5 16 87 bd e9 ab ad bd aa 3d a8 3c e9 5c 92 3c
       -0.06596164 -0.08480055 0.020537216 0.017866569
000020 c2 e9 35 bd bf 1d 0f 3d 3e 24 79 bb dc 43 4a bc
       -0.044412382 0.034940477 -0.0038015987 -0.0123452805
000030 b8 64 32 3d c8 cf a3 bd 84 7c 6d bd f8 13 8c bd
       0.043553084 -0.079986155 -0.057980075 -0.06839746
000040 45 34 68 3c be 73 6c bc 66 df f7 bc bf bb a5 3c
       0.014172618 -0.014431892 -0.030257892 0.020231126
000050 14 42 0e 3d 6e bd 4f 3d cc 89 ab 3a 91 ea a0 3d
       0.034730986 0.050717764 0.0013087331 0.0785724
000060 e0 f3 56 bc 97 cb c4 3c 64 33 d8 3d ce 02 0b 3d
       -0.013119668 0.02402286 0.10556677 0.03393822
000070 a1 bd 6b 3d 8b 87 c6 bd 87 0b 74 3c 45 e1 23 bd
       0.05755389 -0.096938215 0.014895326 -0.040009756
000080 a8 be 0a bc af b8 b8 bd ee ce 9d 3c ab df 88 bd
       -0.008468308 -0.090196006 0.01926371 -0.06683286
000090 19 6f 2e bd 59 8f 47 3d 27 f3 46 bd 84 48 24 3d
       -0.04258642 0.04872069 -0.048571732 0.04010822
0000a0 46 80 b6 3b 20 4c 0d bd 28 51 9e bd 20 8c 25 bd
       0.0055694906 -0.034496427 -0.07730323 -0.040416837
0000b0 e7 a7 7c 3d 1c d3 5f 3d 87 cb 22 3d 6d b5 c3 3c
       0.06168356 0.05464469 0.03974488 0.023890221
0000c0 ce 69 a0 bb 29 3f 82 bc ab fb 73 3d f3 4a c1 bd
       -0.0048954254 -0.015899258 0.05956618 -0.094381236
0000d0 41 da a3 bc a8 94 fb 3b ba 71 85 3c a6 69 53 3d
       -0.020001533 0.0076776333 0.01628958 0.051614426
0000e0 54 87 4d 3d ff 21 bb 3c 6e ce 2b bd c6 76 32 3d
       0.050177887 0.022843359 -0.041944914 0.043570302
0000f0 30 4d 24 3d 38 b2 54 bd f4 a8 41 bd 77 fb 40 bd
       0.040112674 -0.051927775 -0.047280267 -0.047114816

conv4.0.weight f4 [128, 64, 3, 3]
000000 e6 69 ce bc 0a eb 67 bb 0b ab 24 bd b0 85 d8 bb
       -0.02519698 -0.0035387897 -0.04020218 -0.0066077337
000010 2f 58 1f bb 75 26 d7 ba 75 4b 05 3d a2 d9 0e 3c
       -0.0024314036 -0.0016414659 0.032542665 0.00871888
000020 f3 27 d6 bc 61 b1 70 3b 41 18 f4 bc 3d 3b 9e bc
       -0.026142096 0.003672682 -0.029796721 -0.019315356
000030 07 ec 0f 3d f4 3f c5 3c 62 7d c4 3c ad 06 ca 3b
       0.035137203 0.024078347 0.023985568 0.0061653466
000040 9c bf a2 3c 92 73 af 3b 67 08 a7 bc 56 22 fd 3b
       0.019866757 0.005354353 -0.020389749 0.0077250404
000050 3b 0a 1f bd be 6b 3a 3b 4c 6f 33 bd 2a 03 3e bc
       -0.038828116 0.0028445567 -0.043807313 -0.011597434
000060 6e b7 0d 3c 26 9a 0f bd 19 ab 81 3b 4c 70 c7 3c
       0.00864969 -0.035059117 0.003957164 0.02434554
000070 0a 00 23 bc 17 ae 5a bc 42 4e 34 bc 3c 77 0a bd
       -0.00994874 -0.01334717 -0.011004986 -0.033805117
000080 5a e5 83 bc d6 b9 18 3d 03 67 7e 3d 89 03 04 3d
       -0.016100574 0.037286602 0.06210996 0.032229934
000090 a6 99 23 bd bb 82 d0 bc ae 68 e9 bc dd 09 9f bc
       -0.039941452 -0.025452962 -0.028492298 -0.019413883
0000a0 65 41 f1 bc 86 46 9b 3c 14 28 4f bc 07 da 1a 3c
       -0.029450128 0.018954527 -0.012643833 0.009451396
0000b0 f2 3e 8e 3c d7 1b 67 3c 59 72 e8 bc 7a 3c 06 bd
       0.017363999 0.014105759 -0.028374838 -0.03277252
0000c0 af 3c bb bc 09 d6 82 bd d1 e9 b7 3c 42 70 2d 3d
       -0.022856085 -0.0638848 0.02245036 0.042343386
0000d0 23 9d a1 bc 00 dd 12 ba 98 00 16 3d 5b 21 0b 3d
       -0.019728249 -0.00056023896 0.03662166 0.033967357
0000e0 4b 91 39 3d 7b 68 10 bd 76 73 ee 3b 6a f2 34 3b
       0.045304578 -0.03525589 0.0072769476 0.002761031
0000f0 39 1e f0 3c 18 e8 2f bc 77 6e ec bc bb 14 07 3d
       0.029311286 -0.010736488 -0.028861267 0.032978754
000100 61 d1 b4 3c c4 90 c7 3c 9b 0e 01 bd 3d 8e 60 3c
       0.022072496 0.024361022 -0.03150807 0.013705787
000110 c8 1a 68 3c 94 ae 62 bc 2b 45 66 bc eb 5f ae bc
       0.014166541 -0.013835568 -0.014054577 -0.021285972
000120 03 1a c6 ba 7c f0 94 bc 0f 1b c9 3b f6 11 85 bc
       -0.0015113953 -0.018181078 0.006137259 -0.016243916
000130 e1 d5 e1 bc 84 01 06 bd 7d 9f dc bc 32 b4 bf bc
       -0.027567806 -0.03271629 -0.026931519 -0.023401354
000140 c8 d0 5b 3b b3 06 75 bc 2e 75 f0 bc b6 a2 e7 ba
       0.0033541191 -0.0149552105 -0.02935275 -0.0017672393
000150 da bc 02 3c bc 91 b7 3c 47 83 62 bb f7 2d 8b 3c
       0.007979596 0.022408359 -0.003456311 0.016989691
000160 77 59 1f 3d 90 59 21 ba b7 46 04 bb f3 27 59 3c
       0.03890368 -0.00061550085 -0.002018375 0.013254154
000170 9f cf 80 bc 20 17 1a 3c c3 a9 a8 bb 65 c3 0b bd
       -0.015724001 0.0094049275 -0.0051471903 -0.03412189
000180 36 dd 9d 3c d6 66 1b 3c 00 b5 7f bc 40 fb 10 3d
       0.01927052 0.009484967 -0.015607119 0.03539586
000190 1c a4 b8 bc 92 71 47 bc 48 59 57 3c ba eb b6 3b
       -0.022539191 -0.012173073 0.013143845 0.0055823
0001a0 8b 42 07 3d 67 40 71 bc ad c5 38 3d f9 a1 26 3c
       0.033022445 -0.014724827 0.045110393 0.010170453
0001b0 63 ef 17 3c a5 f8 f9 3b fe de c1 3c c5 39 57 bc
       0.009273383 0.0076285177 0.023665901 -0.013136332
0001c0 11 c7 48 bd 4b eb cd 3b 3f 0b 79 bc 99 38 26 bd
       -0.04901797 0.0062841526 -0.015200435 -0.04058132
0001d0 31 7d bd bb 07 dc ef bc fd dc a5 bc ff 62 84 3c
       -0.0057827462 -0.029279722 -0.020246977 0.016160486
0001e0 0e ee 2a 3b da d4 c9 3c a5 ec b7 ba e9 fb 5d 3b
       0.0026081833 0.024637628 -0.0014032318 0.0033872074
0001f0 54 82 aa bc 68 c8 08 3d c5 18 3d 3d 94 fb f2 3c
       -0.020814098 0.033394247 0.0461662 0.029660977
000200 d6 8d 39 ba 01 db 55 bc a5 31 ce 3c f4 97 f4 3c
       -0.0007078325 -0.013052703 0.025170157 0.029857613
000210 ee 8a 03 3c a8 a8 f9 bc da 67 68 bb 45 e8 00 3c
       0.008028729 -0.03047593 -0.003546229 0.007867877
000220 49 b0 9e 3c f9 5e e7 3c 2b 67 b2 3b f9 d3 11 bd
       0.019371169 0.028243529 0.0054444275 -0.035602544
000230 e9 8b 02 3d 29 b8 1e bd 86 06 97 bc 7a 42 28 bd
       0.03187171 -0.038749848 -0.018435728 -0.041079022
000240 8f 99 3e 3d e3 7d ad 3c 62 76 34 3b aa da 26 bc
       0.046533164 0.021178192 0.0027536382 -0.0101839695
000250 0b 7e 36 bd e9 7f 3a bd 33 56 a1 3a e1 4d 41 ba
       -0.044553798 -0.04553214 0.0012309015 -0.00073739706
000260 8c 30 1a 3c ce 1a 53 3c 9a 45 9f bc 0a 5f 37 bc
       0.009410989 0.012884809 -0.019442368 -0.011192093
000270 dd 6e df 3c bb 3f 13 bd b5 d7 47 bc bb 4c ee bc
       0.027274543 -0.03594945 -0.012197425 -0.029089322
000280 e2 7e 90 3c c2 d4 08 3d f6 89 b3 bc 21 a2 1a bc
       0.017638627 0.033406027 -0.02191637 -0.009438069
000290 dc 9a 0f bd d6 81 78 bd cd 3d 7f bd 58 ba df bc
       -0.035059795 -0.060670696 -0.062314797 -0.027310535
0002a0 31 a3 43 3d cb dc c3 3c 8e 0b f3 3c 35 33 38 bd
       0.047763053 0.023908993 0.029668596 -0.04497071
0002b0 e7 f3 fc 3c e5 81 b1 3c ef 5f 0c 3c 9f ad 75 bb
       0.03087802 0.021668384 0.008567794 -0.003748752
0002c0 38 eb a4 bc d9 3e c5 bc 62 54 04 3d 58 6a 92 bb
       -0.020131692 -0.02407782 0.032307036 -0.0044682436
0002d0 98 c8 20 bd d2 b5 7b b8 6c a6 c3 bc fe ac c6 bc
       -0.0392538 -6.0012397e-05 -0.023883067 -0.024252411
0002e0 a0 35 c0 3c 20 76 86 b9 2c df 1f bc 04 54 d7 3c
       0.02346307 -0.00025646482 -0.009757798 0.026285179
0002f0 89 69 29 bd bc 9c 98 bc 70 12 30 bd 95 91 82 bc
       -0.04136041 -0.018629424 -0.042986333 -0.01593856
000300 1b 33 59 bd dd 66 7a bd e7 65 6f bb 35 88 31 bd
       -0.053027254 -0.061133254 -0.0036529244 -0.043342788
000310 8b f1 a1 bc dc 3c 84 3b 8b f4 66 3a 05 03 7b 3c
       -0.019768497 0.0040355753 0.00088102435 0.015320544
000320 32 ad 2b 3d f1 80 06 bd 89 6f 8d 3c 27 ae da 3c
       0.04191322 -0.03283781 0.017265098 0.02669437
000330 b5 36 48 bc f2 2a e1 bc 17 40 04 bd b7 aa ce bc
       -0.012220074 -0.027486298 -0.032287683 -0.025227888
000340 b3 df 1f bc c5 73 81 3c 36 2d 72 3c 20 84 96 3c
       -0.009757924 0.015802274 0.014781287 0.018373549
000350 9e 51 33 3d 35 ec 91 bb 99 e1 4f 3c 53 40 0f 3c
       0.043779008 -0.004453207 0.012688064 0.008743363
000360 6f 05 a1 3c 8e b1 c3 bb 55 07 da 3b 4f 74 26 bd
       0.019655911 -0.005972094 0.006653706 -0.040638264
000370 fd 6d 27 3c ad 17 70 3b 63 b7 2d 3c 67 ee 9f 3c
       0.010219094 0.0036635206 0.010602805 0.019522859
000380 08 45 91 bc a1 ef b1 bc 4d e4 1f 3c b6 58 02 3d
       -0.017733112 -0.02172071 0.009759021 0.031822883
000390 59 41 1e bd 94 fb c3 bc 6f 0f 90 b9 55 09 81 bb
       -0.03863654 -0.023923673 -0.0002747732 -0.00393788
0003a0 f6 b5 cb bc 4f 0f 2e bc 30 ab 03 3d 7f 87 bd 3c
       -0.02486704 -0.010623767 0.03214568 0.023135899
0003b0 71 4d f1 bc 38 f5 95 3c 02 fc 81 3d 25 9f db bc
       -0.029455872 0.018305406 0.06346895 -0.026809284
0003c0 97 ba 30 3c 7e f7 d5 bb e7 58 6f 3c 0f c4 c0 bb
       0.010786674 -0.0065297475 0.014608598 -0.005882747
0003d0 89 fc 76 3c 25 82 e2 bb 76 89 1c bd 5c 85 da bc
       0.0150748575 -0.006912487 -0.03821703 -0.026674919
0003e0 14 82 19 3d f1 be 35 bd db dd 6a 3c ae 3d 84 3c
       0.037477568 -0.04437155 0.014335121 0.016142692
0003f0 5f 7c a0 bc 65 f9 99 3c 14 22 a3 3c 4c 4a 1a 3c
       -0.019590555 0.018795678 0.01991371 0.009417128

conv4.0.bias f4 [128]
000000 f3 2b 41 3c 03 ac 9f bb 08 43 12 bd d3 7b c5 3b
       0.0117902635 -0.0048728003 -0.035708457 0.006026724
000010 04 63 90 bd bb 33 76 bc ec dc 64 3b 3b 12 2c 3d
       -0.07050136 -0.015026982 0.0034921719 0.042009573
000020 9b 8d ce 3c bb 1d f6 3c 15 ad 0f 3c 7b 7e 9d 3c
       0.025214007 0.030043473 0.008769293 0.01922535
000030 82 a4 e5 bc 62 fe 24 bc dc d5 ce bc 95 84 d6 b9
       -0.028032545 -0.010070415 -0.02524846 -0.00040916042
000040 d8 3f 33 3d e0 c6 bf 3b bb ef 19 3d b3 5e 84 bc
       0.043762058 0.005852565 0.03758214 -0.016158437
000050 60 51 9b bc 45 e4 ae bc 8a 0e d6 3c 39 14 42 bc
       -0.018959701 -0.021349082 0.02612998 -0.011845642
000060 c0 c8 83 bd 04 fd 3d bd 80 1e 98 3c 4d ab ab bd
       -0.064347744 -0.046383873 0.018569231 -0.083822824
000070 aa 1a 26 3d 91 8d c2 3c 77 01 67 bc 9c 99 2c bd
       0.040552773 0.023749145 -0.01409947 -0.04213868
000080 c5 1a 20 3d dc b0 22 bc 95 8a 61 bd b8 79 b6 bc
       0.03908803 -0.009929862 -0.055063803 -0.022274837
000090 86 7d 87 bc 0a dc 27 bd 92 9f 55 3d 3b 64 3f bd
       -0.016539346 -0.04098133 0.05215413 -0.046726447
0000a0 78 b4 c2 3c d8 e9 d5 3c 0e 79 43 bc 3d 9f eb 3c
       0.023767695 0.026112482 -0.011930717 0.028762454
0000b0 da 56 37 bb c9 dc 19 bd ce 27 1b 3b 5e 13 0a bd
       -0.0027975352 -0.037564073 0.0023674848 -0.033709876
0000c0 af ff a7 3c f3 39 20 bd 8c 35 55 bc a3 67 51 bc
       0.020507662 -0.039117765 -0.013013255 -0.012781057
0000d0 f2 c5 f3 3b e7 4a 39 bc 7a e4 06 bd fe 43 84 bc
       0.0074393684 -0.011309362 -0.032932736 -0.016145702
0000e0 2f d2 29 3d f8 ea ed bc 82 31 22 3d 11 d1 de bb
       0.041460212 -0.029042706 0.039597996 -0.006799825
0000f0 20 be 38 3d 6d 74 bc 3b ee bf 9f 3c 78 68 82 3c
       0.045103192 0.0057511837 0.019500699 0.015918955
000100 71 7d 5b 3c 72 a9 f2 3c 23 14 1e 3c 18 4a b1 3c
       0.013396607 0.029621813 0.009648356 0.021641776
000110 6a 11 c9 bc cd e0 1f 3d 74 76 80 3c a3 79 50 3d
       -0.024544436 0.039032746 0.015681483 0.05089725
000120 b6 b6 04 3d 28 20 01 bd 67 a0 a8 3c d2 cc 19 3d
       0.03240081 -0.031524807 0.020584298 0.037548847
000130 6b 6f f7 bc cc 8a 22 3d 86 e0 d2 3c d0 75 1a 3c
       -0.030204495 0.03968315 0.025741827 0.009427503
000140 88 d9 0a 3d bd 6d ee 3c 7a 86 18 bd 70 8d 08 bc
       0.03389886 0.029105062 -0.03723762 -0.008334503
000150 82 a8 41 bd ce 46 36 bd d6 fd 4d 3d 5c ae 93 3c
       -0.047279842 -0.04450112 0.050290905 0.018027477
000160 ae bb 3d bc 80 85 a6 3b 38 6d ce 3b b3 cf 16 3d
       -0.011580391 0.0050818324 0.006299641 0.03681917
000170 d7 89 3c 3d 8c 5b 05 bc 8e 66 c4 bc 68 db ad 3c
       0.04602989 -0.008139502 -0.023974683 0.021222785
000180 98 4a 59 bc 69 6e f5 3c 22 c6 47 3c d1 39 07 3d
       -0.013262413 0.029959874 0.012193235 0.033014122
000190 ab a3 4d bd ad a6 8a bc c1 e8 1d 3c 2a 52 81 bb
       -0.050204914 -0.01692518 0.009638012 -0.0039465623
0001a0 97 92 b3 bc 84 e2 54 3d 26 a3 0c 3c bb 76 97 bb
       -0.021920485 0.051973835 0.0085838195 -0.004622308
0001b0 73 b9 ef bb b6 a7 ad bc c7 ef c2 bc 5c 76 9e bb
       -0.0073158084 -0.021198135 -0.023795975 -0.004835887
0001c0 e7 ca 27 3d 31 74 ae 3c d0 75 54 3d 65 94 e4 bc
       0.040964987 0.021295639 0.051870167 -0.027902791
0001d0 78 8f 9a 3b 5c 02 88 bc 14 1b 1d bc 26 68 d1 3c
       0.00471681 -0.016602688 -0.009588975 0.025562357
0001e0 12 81 77 3c 64 cd 7a 3c ab f1 9c bc 98 d3 f3 3c
       0.015106456 0.015307758 -0.019158205 0.029763982
0001f0 d2 3f 93 bc 51 b2 5a 3c f0 b4 ab 3c 75 6b 17 3d
       -0.017974768 0.013348178 0.020960301 0.036967713

linear1.0.weight f4 [2, 10880]
000000 98 f3 02 3b ca 8d 91 3b a7 0b 80 3c 3f 8c f2 3c
       0.001998162 0.0044419514 0.015630556 0.02960789
000010 3b 09 47 3c db a8 bb 3c 79 b6 9c 3c f1 9b 4d 3c
       0.012148197 0.022907665 0.019129978 0.012549386
000020 74 14 61 ba 4b d7 31 3c 29 7e 30 3d 73 ac d5 3c
       -0.00085861166 0.0108545525 0.043089066 0.026083207
000030 11 3b d0 3b 79 79 9e 3c b2 e7 13 3c 8d b4 a8 3c
       0.0063546975 0.019345032 0.009027408 0.020593906
000040 a9 56 49 bc 8e e8 fd 3a cb ff 92 3a af 03 8e bc
       -0.012288728 0.0019371675 0.0011215148 -0.01733574
000050 03 cf c2 bc 88 20 c2 bc 10 93 b0 bb 93 96 1d bc
       -0.023780352 -0.023697153 -0.005388625 -0.009618419
000060 28 78 f9 bc 8a 5d 2b bd 0a c5 6d bc f5 1d 1e bd
       -0.030452803 -0.041837253 -0.01451231 -0.038602788
000070 8d df c3 bb 8c da c9 bc c7 e2 0b bd 80 54 cf bc
       -0.005977577 -0.024640344 -0.03415182 -0.025308847
000080 94 72 f7 bb 52 19 4c 3c 2b 70 d2 bb e5 18 21 39
       -0.0075515006 0.012457209 -0.006422063 0.0001536343
000090 c5 b1 c0 3b 07 93 6a 3c b5 54 67 3a 1c 0a 46 3c
       0.005880567 0.014317281 0.0008824573 0.012087371
0000a0 a8 39 f7 bb f6 3a 17 bc b4 d5 46 bc 33 f3 07 bb
       -0.007544715 -0.009230366 -0.012135912 -0.0020744323
0000b0 a7 16 33 3c 74 27 12 bd 1c f5 fe bc b6 a0 28 ba
       0.010930694 -0.035682157 -0.031122737 -0.0006432639
0000c0 c6 e4 c4 3c 50 19 a0 39 2a 47 32 3d 94 bc f2 ba
       0.024034869 0.00030536437 0.0435249 -0.0018519335
0000d0 08 b0 b2 3c 46 38 80 bb 0c 83 cc 3b 72 de 2b bc
       0.021812454 -0.0039129583 0.006241208 -0.010490047
0000e0 48 ab d4 3b ef 83 ba 3b 99 cb c6 bc cd f4 3a 3b
       0.006490145 0.0056919972 -0.024267005 0.002852726
0000f0 cb cf a2 3b 63 01 e4 3b cb 86 2a ba aa fa 21 bd
       0.0049686185 0.006958173 -0.0006505071 -0.039545693
000100 ba cd 43 3c 89 58 a1 3b f1 6f 8d 3c 36 d4 fa 3c
       0.0119509045 0.0049238843 0.017265292 0.030618768
000110 2a ff 2b 3b 71 89 4a 3c 7c 76 91 3c 8c 29 97 3b
       0.002624462 0.01236187 0.017756693 0.004613107
000120 c9 09 03 bc 2a 83 5e bc fd 7d fb bc 85 cf 25 bc
       -0.007997938 -0.013581077 -0.030699724 -0.010120277
000130 79 48 71 ba 8b 9c cc bc dc 70 b5 bc f3 47 8d bc
       -0.00092042197 -0.02497699 -0.022148542 -0.017246222
000140 7d 77 de bc e5 bb 9b bc 06 14 f7 bc 48 02 f5 3b
       -0.027156586 -0.019010494 -0.030160915 0.0074770786
000150 a5 87 7e bc c5 b9 b8 3b aa f9 d0 ba 4f 1d a7 b9
       -0.01553527 0.00563738 -0.0015943546 -0.0003187456
000160 2d de 06 bc c4 e1 1c 3c 8e 9f 44 bb 9f 93 de bb
       -0.008231682 0.009575311 -0.0030002329 -0.0067925
000170 b4 9f a6 bb 0b c7 cb ba 33 14 aa ba 59 65 a2 3b
       -0.005084956 -0.001554699 -0.001297599 0.0049559292
000180 b3 c5 bb ba 4d a5 2c 3a ff e9 a0 3b ba 35 21 3a
       -0.0014325887 0.0006585911 0.004910707 0.00061496685
000190 d5 4b 8a bb 86 a9 d9 3b 7d c0 5b ba da 37 17 bc
       -0.0042204657 0.006642523 -0.000838287 -0.009229625
0001a0 22 79 77 bc 0d ec 7e ba 01 bf f6 3b f1 33 65 3c
       -0.015104564 -0.00097245054 0.0075300937 0.013989435
0001b0 e0 0a c3 3a e1 9a 23 bc 6a f3 04 bb b6 53 59 bc
       0.001488056 -0.0099856565 -0.0020286688 -0.013264587
0001c0 9e 2d bb 38 52 dd 9a ba 9c 75 f9 bb b9 a9 1c bb
       8.925352e-05 -0.0011815226 -0.007612897 -0.0023904874
0001d0 81 9e 42 bc d4 74 04 bc a5 d0 1e 3b 89 4b 80 3a
       -0.011878611 -0.008084495 0.0024233249 0.0009788136
0001e0 ec 1f 1c bc f3 6c df 3b 71 69 eb 3b cf 5c f9 bb
       -0.009529095 0.0068184077 0.0071842005 -0.0076099406
0001f0 23 7d a3 3a a7 c0 cd 3b 42 60 e7 ba 3b 6f a9 3b
       0.0012473207 0.0062790695 -0.0017652588 0.0051707304
000200 70 30 95 b9 bc cd 61 3b 94 73 ad 3c 75 d1 ee 3b
       -0.00028455583 0.0034454903 0.021173276 0.007288153
000210 98 9c 89 bb 0a 4e 0a 3c 12 1f 1f 3c f5 70 99 bb
       -0.0041995756 0.0084414575 0.009711998 -0.004682655
000220 15 d3 ba 3b 37 7a be 3a f8 10 0a 3b 1f 2b 04 3c
       0.0057014325 0.0014532272 0.0021067243 0.0080669215
000230 df b5 1c 3c 25 24 73 3b 46 be 8f ba d0 9a 01 bb
       0.009564846 0.0037100401 -0.001096674 -0.0019776113
000240 b8 c1 0a bc 3f af 19 3b b4 be 97 bb 6a 85 41 ba
       -0.008469038 0.0023450402 -0.004630888 -0.0007382246
000250 6a f6 25 bc 0c b8 d7 3b ff ad bc 38 45 34 ac 3b
       -0.0101295505 0.0065832194 8.996948e-05 0.0052552545
000260 a8 8e be bb a9 3c fd 3b 70 3e 8c 3b ab 00 01 3b
       -0.005815346 0.0077281785 0.004279904 0.0019684236
000270 c1 0d e8 3b 19 69 53 3c 8f 53 72 ba ef 9f e9 bb
       0.0070817177 0.012903475 -0.00092440186 -0.0071296613
000280 ef 10 76 3c c1 0c 46 3c 3c f7 35 bc 1f 20 29 bc
       0.015018686 0.012088002 -0.011106309 -0.0103226
000290 64 3f fa bb 3d b5 a5 3b 3d 7d 39 3c 7b 43 ca 3b
       -0.0076369513 0.0050570057 0.011321363 0.006172595
0002a0 fe 15 f8 3b 63 0f f6 bb 03 ad dc 3c d4 12 8d bb
       0.007570981 -0.0075091585 0.026937967 -0.004305223
0002b0 9d 10 90 3b 53 53 91 39 ec 7e ac bb b4 9b 52 3b
       0.0043965117 0.00027718637 -0.0052641537 0.0032136263
0002c0 6c 48 96 3a 30 4f eb 3b 9d c1 61 3b 93 8c 35 bb
       0.0011465675 0.0071810707 0.0034447678 -0.0027702197
0002d0 ac 60 e7 3b af 42 19 3c e6 5b 5a bb d1 d0 21 bb
       0.0070610847 0.0093542775 -0.0033318936 -0.0024691115
0002e0 c5 ff bd 3a 87 60 2b 3c 3e 25 bb 3b 19 fb 6c ba
       0.0014495781 0.010460026 0.0057112267 -0.0009040102
0002f0 a1 ec c4 bc 60 e8 f1 bc 3f 6e a7 bc 73 39 9a bc
       -0.024038615 -0.02952975 -0.020438312 -0.018826222
000300 20 7f 6e bc d1 55 18 bd f6 0c 8c bc 5d 78 0a bd
       -0.014556676 -0.037191216 -0.017096024 -0.033806194
000310 58 a9 de 3a 22 ec 81 bc f4 b9 9e bc a4 c7 d0 bc
       0.0016987724 -0.015859667 -0.019375779 -0.025485821
000320 dc 31 00 bd 12 97 15 bc eb d8 e6 bc ca 58 69 3b
       -0.03129755 -0.009130256 -0.028179606 0.00356059
000330 5d cc 08 bc b5 78 e0 bb 69 14 d4 bc c1 be 8a bb
       -0.008349505 -0.006850327 -0.025888639 -0.0042341654
000340 36 d7 f1 bc 40 8c 82 bc cf da e8 bc f1 70 90 bc
       -0.029521566 -0.015936017 -0.028424649 -0.01763198
000350 12 72 53 bc 39 e4 5d bc 96 78 df bc 0a 1c f3 bb
       -0.012905614 -0.013543182 -0.02727918 -0.007419114
000360 4f 77 15 3a 7b c1 09 bc d1 86 c5 bc 2d 23 40 bc
       0.00057016773 -0.008407946 -0.024112137 -0.011727137
000370 1d c6 a7 3b b1 fe 47 3c 01 c6 93 3b 17 e1 75 bb
       0.0051200525 0.012206719 0.004509688 -0.0037518197
000380 8a 40 02 3d 4f 0f 28 b9 b7 1f 53 bc d2 da bb bb
       0.03179983 -0.00016027431 -0.012885979 -0.0057328725
000390 09 4c d0 3c 59 e0 57 bc 4e b8 08 3c ac 7e 4a bc
       0.025426881 -0.013176047 0.008344723 -0.0123593025
0003a0 95 59 b4 b9 81 8d 9f 3b 44 5b 2f bc ca 0b 92 3c
       -0.0003439902 0.0048691635 -0.010702912 0.017827887
0003b0 65 75 0b bc 59 5e b3 3a 65 a5 81 3c 82 d7 9c 3b
       -0.008511876 0.0013684734 0.015825937 0.0047864327
0003c0 8d 3c b7 3b 86 40 06 3b b5 a9 8f bb 6f a6 4f bb
       0.005591935 0.0020485236 -0.0043842443 -0.0031684896
0003d0 ae 30 cb 3b 21 17 5e 39 93 b7 24 3c 8b 13 07 3c
       0.0062008714 0.00021180186 0.010053533 0.0082444055
0003e0 1d 75 72 3c b7 2d b7 3b c3 d0 39 3c 2e 2c 0d 3c
       0.01479843 0.0055901664 0.011341277 0.00861649
0003f0 89 05 db 3b a8 01 99 b9 59 08 c7 bb 8e 99 8a ba
       0.0066840095 -0.00029183668 -0.006073993 -0.0010574327

linear1.0.bias f4 [2]
000000 e3 e7 00 3c c3 12 07 bc
       0.007867786 -0.008244219
